…
    self._target(*self._args, **self._kwargs)
  File "/Users/nubyra/anaconda/lib/python3.6/site-packages/keras/utils/data_utils.py", line 560, in data_generator_task
    generator_output = next(self._generator)
  File "model.py", line 102, in batch_generator
    images[i] = image_preprocess(image)
ValueError: could not broadcast input array from shape (85,320,3) into shape (66,200,3)

_________________________________________________________________
Layer (type)                 Output Shape              Param #   
=================================================================
lambda_1 (Lambda)            (None, 66, 200, 3)        0         
_________________________________________________________________
conv2d_1 (Conv2D)            (None, 31, 98, 24)        1824      
_________________________________________________________________
conv2d_2 (Conv2D)            (None, 14, 47, 36)        21636     
_________________________________________________________________
conv2d_3 (Conv2D)            (None, 5, 22, 48)         43248     
_________________________________________________________________
conv2d_4 (Conv2D)            (None, 3, 20, 64)         27712     
_________________________________________________________________
conv2d_5 (Conv2D)            (None, 1, 18, 64)         36928     
_________________________________________________________________
flatten_1 (Flatten)          (None, 1152)              0         
_________________________________________________________________
dense_1 (Dense)              (None, 100)               115300    
_________________________________________________________________
dense_2 (Dense)              (None, 50)                5050      
_________________________________________________________________
dense_3 (Dense)              (None, 10)                510       
_________________________________________________________________
dense_4 (Dense)              (None, 1)                 11        
=================================================================
Total params: 252,219
Trainable params: 252,219
Non-trainable params: 0
_________________________________________________________________
Epoch 1/3
Traceback (most recent call last):
  File "model.py", line 151, in <module>
    train_model(data_dir, filepath, batch_size)
  File "model.py", line 149, in train_model
    callbacks =[checkpoint])
…
